Found 118 images belonging to 2 classes.
Found 69 images belonging to 2 classes.
Model: "alex_net"
_________________________________________________________________
Layer (type)                 Output Shape              Param #   
=================================================================
conv2d (Conv2D)              (None, 55, 55, 96)        34944     
_________________________________________________________________
max_pooling2d (MaxPooling2D) (None, 27, 27, 96)        0         
_________________________________________________________________
batch_normalization (BatchNo (None, 27, 27, 96)        384       
_________________________________________________________________
conv2d_1 (Conv2D)            (None, 27, 27, 256)       614656    
_________________________________________________________________
max_pooling2d_1 (MaxPooling2 (None, 13, 13, 256)       0         
_________________________________________________________________
batch_normalization_1 (Batch (None, 13, 13, 256)       1024      
_________________________________________________________________
conv2d_2 (Conv2D)            (None, 13, 13, 384)       885120    
_________________________________________________________________
conv2d_3 (Conv2D)            (None, 13, 13, 384)       1327488   
_________________________________________________________________
conv2d_4 (Conv2D)            (None, 13, 13, 256)       884992    
_________________________________________________________________
max_pooling2d_2 (MaxPooling2 (None, 6, 6, 256)         0         
_________________________________________________________________
flatten (Flatten)            (None, 9216)              0         
_________________________________________________________________
dense (Dense)                (None, 4096)              37752832  
_________________________________________________________________
dense_1 (Dense)              (None, 4096)              16781312  
_________________________________________________________________
dense_2 (Dense)              (None, 1000)              4097000   
_________________________________________________________________
dense_3 (Dense)              (None, 2)                 2002      
=================================================================
Total params: 62,381,754
Trainable params: 62,381,050
Non-trainable params: 704
_________________________________________________________________
Train for 3 steps, validate for 2 steps
Epoch 1/100

1/3 [=========>....................] - ETA: 14s - loss: 0.7283 - accuracy: 0.3438
…
